merging/NNs/domoritz_original_cnn.pt (torch, 84559 bytes, 7 tensors)

weight f4 [32, 1, 7, 7]
000000 6d fe 21 3e d3 6d ef 3d 59 35 c9 bc 7b 4d 1d bd
       0.15819712 0.11690869 -0.024561571 -0.03840397
000010 7b 65 8b bd 97 52 6d 3e da 54 71 3e f2 1f 5b 3e
       -0.06806465 0.23176037 0.23567525 0.21398905
000020 7c 99 be bd 67 49 18 3d 3d 4b a1 3d e4 51 b5 bb
       -0.093066186 0.037179377 0.07875679 -0.0055334438
000030 8e 7b da 3c 90 d0 a5 3d e2 cd 09 be 54 3d 0c be
       0.026670244 0.08096421 -0.13457444 -0.1369527
000040 fd 4b 50 bc 77 d7 96 be ac 9c 39 be f8 c4 e8 bd
       -0.0127134295 -0.29461262 -0.18126172 -0.11365694
000050 95 f1 82 3d 74 44 1a 3e 9d 6b 05 be 5d b3 2e 3d
       0.06393734 0.15065175 -0.13029332 0.042651523
000060 ec 86 8e bd d3 90 47 3e 32 20 1f be 98 26 52 3e
       -0.06959328 0.1948884 -0.15539625 0.20522535
000070 8c 7e 1d 3d 06 50 38 be 19 35 e1 3d 79 4b 92 be
       0.038450763 -0.17999277 0.10996456 -0.28573206
000080 71 d1 80 3d f2 aa 47 bb 58 ba 83 3e 9f 59 3a bc
       0.06289948 -0.0030466882 0.25728106 -0.011373906
000090 11 dc d8 bd 0c 7a 80 3d d7 6c 90 be a5 d2 d8 3d
       -0.10588849 0.062732786 -0.28208038 0.10587052
0000a0 8b ad 85 be c2 d9 88 3e 30 fe 1c bc 16 78 5a be
       -0.26108965 0.26728636 -0.009582087 -0.21334872
0000b0 99 8d 1c bc 88 d8 85 be 97 aa ec 3d cb 27 79 be
       -0.009555244 -0.26141763 0.11555975 -0.24331586
0000c0 d3 7c ce 3d 1a 49 2b 3e 69 4d 13 be 28 90 3d 3e
       0.10082402 0.16727105 -0.14384998 0.18512022
0000d0 fa f0 36 bc 56 6d 20 3d 5c 9b 4a 3e 82 9e 0f 3e
       -0.011165852 0.03916677 0.19785827 0.1402531
0000e0 09 1f 2a 3a cc ad 2d be 88 a2 44 be 08 94 55 be
       0.000648961 -0.1696083 -0.19202626 -0.2085725
0000f0 4f 5d 58 bd 21 21 81 3c f7 f4 1f be 0a cf 3c bd
       -0.05282336 0.015762867 -0.1562079 -0.046095885
000100 35 c4 1f be 1e 2a 9a bd 61 4e 13 bd 48 0b 5c 3d
       -0.15602191 -0.075275645 -0.03596342 0.053721696
000110 1d d3 9c 3e 27 1e 05 3d 6e fc bb bd 3b d5 2d 3c
       0.30629817 0.03249946 -0.091790065 0.01060992
000120 9a 74 1a 3c 40 17 ca 3d 7a f8 65 3e b0 2c 92 3e
       0.009427214 0.09867716 0.22458068 0.2854972
000130 4d 01 c6 3d 0f fd ea 3d 00 49 19 be 9e 41 a0 3d
       0.09668217 0.11474048 -0.14969254 0.078250155
000140 70 f7 fe 3d 07 51 1d 3e 2a 5f a4 3d 2b 98 a4 bd
       0.12449539 0.1536294 0.080259636 -0.08036836
000150 a1 08 56 bd 5f 05 6a be eb 27 96 3d 81 e8 e6 bd
       -0.052254323 -0.22853611 0.073318325 -0.11274815
000160 b1 cb 5c bc 72 46 e2 bd 8c 5a 55 be 5b 59 58 3d
       -0.013476298 -0.110485926 -0.20835322 0.05281959
000170 62 0c fb 3c 26 96 5c bd 2d 6e 90 3d f4 be d2 bd
       0.030645553 -0.05385413 0.07052264 -0.10290328
000180 43 8d 7a bd 97 56 25 be 85 92 a5 3d 3a d5 db bd
       -0.061169874 -0.16146313 0.08084587 -0.10734029
000190 8a 20 77 3d d5 ea be 3d 04 6b 4a 3e fb f1 6d 3d
       0.060333766 0.093221344 0.19767386 0.0580921
0001a0 e5 b9 0f 3e 29 e2 67 be 4c f1 67 be 7a dc e9 3d
       0.14035757 -0.22644867 -0.22650641 0.11419006
0001b0 32 43 ac 3c 34 86 08 3d 65 5c fe bd c5 4d a2 bd
       0.021028135 0.03333111 -0.124199666 -0.079249896
0001c0 58 f6 01 be b6 85 38 be 8d f2 31 be fe 24 17 bd
       -0.12691629 -0.18019757 -0.17377682 -0.036900513
0001d0 f8 46 06 3d 6e 35 27 be 18 a3 d4 bd 79 c9 4b be
       0.032782525 -0.16328976 -0.1038267 -0.19901074
0001e0 b3 d8 5a be 7e 11 3c be 2b d8 74 bc 19 b0 53 be
       -0.21371727 -0.18366048 -0.014944117 -0.20672645
0001f0 41 11 42 3c 68 9a e1 bd 4e 36 d3 3d e1 93 ed 3c
       0.011844934 -0.11015779 0.10313092 0.029001178
000200 ec 4a 6f 3e 4c ae a1 3d 60 55 d3 3c 86 9b 6e 3e
       0.23368424 0.078945726 0.025797546 0.23301515
000210 14 51 08 3e 65 16 d6 bc 43 81 2d 3e 62 86 4e 3e
       0.13312179 -0.026133725 0.1694384 0.2016845
000220 f0 bb 24 3e ab 13 8d 3c dc e3 a1 bd ee f2 ce 3d
       0.16087317 0.017221292 -0.07904789 0.10104929
000230 a5 1b f8 3d 60 b8 07 3e 59 8d 8b 3d 2a 6b b3 bc
       0.12114648 0.13253927 0.06814069 -0.021901686
000240 ea c1 35 3e 17 c0 2f 3d 71 68 7f 3d c7 a7 68 bc
       0.17749754 0.0429078 0.062355462 -0.0142001575
000250 1c 49 15 3e 62 f1 9d 3f 25 a1 a1 be b4 f9 97 bf
       0.1457867 1.2339289 -0.31568256 -1.1873078
000260 40 d9 a8 3e 78 1c 54 be 5e 13 02 bd 74 a3 61 be
       0.3297825 -0.20713985 -0.03175675 -0.22035009
000270 47 0a 10 40 28 c2 5e be 5c 63 f4 bf 9a a8 9f 3e
       2.2506273 -0.21753752 -1.9092822 0.3118332
000280 22 49 1c be d0 7e 09 3c 39 aa 9f be ec 76 02 40
       -0.15262273 0.008392051 -0.31184557 2.0385084
000290 f2 a2 1c 3e 50 71 9d bf d2 9f 45 bf 17 25 96 3d
       0.15296534 -1.2300205 -0.7719699 0.07331293
0002a0 ed 02 c4 3b 21 1e f5 bd a3 fc 80 3f 55 19 2f 3f
       0.005981794 -0.11968637 1.0077099 0.6839803
0002b0 e8 7c c0 3c 19 87 0a c0 60 7e 14 3f 67 d9 9a 3b
       0.02349706 -2.1644957 0.5800533 0.0047256234
0002c0 7a 15 d5 3e 31 6c bc be fa 53 ae 3f 8b f2 1e 3f
       0.41617948 -0.36801293 1.3619378 0.6208884
0002d0 25 8a 28 c0 0a de 13 3f 81 f6 38 be e8 7b 3f 3f
       -2.6334317 0.5776068 -0.18062784 0.7479844
0002e0 87 c0 8f bf a4 b1 c7 3f 80 7a 01 3f fe e2 d2 bf
       -1.123063 1.5601087 0.50577545 -1.6475523
0002f0 ed fb 2b 3d 40 44 04 3d 0c bd 66 3e 22 a0 18 bf
       0.041988302 0.03229165 0.22533053 -0.59619343
000300 8d 8b 46 3f 06 ca c3 3e 2e f3 fb be c1 fd af be
       0.7755669 0.3824007 -0.4920897 -0.34373286
000310 28 df b9 bd f8 75 d8 3e f4 04 8b 3d c2 fb eb bd
       -0.09075767 0.42277503 0.06788054 -0.11522628
000320 4d 3c e3 be db 90 b3 be f1 30 0d 3f eb 7c 9b bd
       -0.44381943 -0.35071453 0.55152804 -0.075921856
000330 1f 98 5c 3d c1 74 ae bc b5 bb 36 be ec 06 9c be
       0.05385601 -0.021295907 -0.17845042 -0.3047403
000340 d1 0b f9 bd 57 8c f9 3e b7 5f 4e be ed 89 22 3e
       -0.12160457 0.48739883 -0.201537 0.15872927
000350 25 ed 51 bd 40 58 26 be 6c 83 35 be df bf 34 bc
       -0.05125155 -0.16244602 -0.17725915 -0.011032074
000360 30 a0 02 3f 1e 9c e7 be aa 61 83 be f0 28 cf be
       0.51025677 -0.45236295 -0.2566045 -0.4046092
000370 b4 f7 89 be 32 82 51 3d 28 2f b6 3e 81 b3 d6 3e
       -0.26946795 0.051149555 0.35582852 0.41933826
000380 36 4c 78 bf 13 1a 81 bf d9 61 4d bf 32 b3 26 be
       -0.9699129 -1.0086082 -0.8022743 -0.16279295
000390 54 55 af 3e 3b d9 20 3f ed fd 91 3e ab b4 ba 3e
       0.34244788 0.6283147 0.28514042 0.36465964
0003a0 da 3a 29 3f 2a 03 8a 3f 9a 57 a1 3f be 49 5e 3f
       0.66105425 1.0782216 1.2604859 0.8683127
0003b0 98 23 4a 3e da ec 95 3d af 3e 12 3e e6 3b 54 3e
       0.1974014 0.073205665 0.14281724 0.20725974
0003c0 88 d5 03 3e d4 f2 33 bd d8 9b 05 bf 38 0d e1 be
       0.12874424 -0.04393275 -0.52190924 -0.43955398
0003d0 7b cc f3 be b0 32 5b be 94 53 e0 bd 5d 30 6f be
       -0.47616944 -0.21406054 -0.10953441 -0.23358293
0003e0 d4 e2 0f bc 44 2e 22 be b4 e0 25 be 5c 09 8c bd
       -0.008782107 -0.15837961 -0.16198999 -0.06837723
0003f0 8e a4 07 be d6 d5 74 3c 91 fb c0 3d 82 77 86 3e
       -0.13246366 0.014943561 0.094229825 0.26263052

bias f4 [32]
000000 b6 98 29 3e 05 a6 db bd 1f aa 8b be 34 3a 73 bf
       0.16562161 -0.10725025 -0.2727823 -0.95010686
000010 1e d4 8d 3f ab 2c 44 bd 99 0b 0e 3e 4e e3 71 bd
       1.1080358 -0.04789416 0.13871612 -0.059054665
000020 fa 9d 2f be 69 fe d9 3e 9a 39 16 bc f2 19 87 3e
       -0.17150107 0.42576912 -0.009169007 0.26386982
000030 3e fa 1d ba 8f bb 09 3f 26 02 c1 3e 87 7d d8 3e
       -0.00060263637 0.53801817 0.37696952 0.4228327
000040 30 8e 6e be 58 85 b7 3c a4 71 9e be d0 56 19 3f
       -0.23296428 0.02240245 -0.30946076 0.5989809
000050 2c f1 1b 3f 3a 4d 59 3d 5b 63 0f bf b6 43 0e 3e
       0.60914874 0.053052165 -0.5601098 0.13893017
000060 58 9d 23 3e 13 85 46 bc ed c5 43 3e 11 9d 04 3f
       0.1597799 -0.012116688 0.19118471 0.51802164
000070 5f a3 90 3d 75 59 75 3f cb ce b0 bf a8 80 82 3e
       0.070624106 0.95839626 -1.3813108 0.25488782

weight f4 [32, 32, 3, 3]
000000 20 9e 3e be 4b 34 8a bc 0b 3a 58 3e 8a ed df bd
       -0.18615007 -0.016870638 0.21115892 -0.10933979
000010 2e a7 6d 3d 09 10 38 3e 2d 5a 36 be f3 ba c4 bd
       0.058020763 0.17974867 -0.17807837 -0.0960597
000020 98 b1 99 3c bf fd c8 3d ed d7 67 3d ab 23 ff bc
       0.018761441 0.09814023 0.056602407 -0.031144938
000030 2e 66 a6 bc 7c d1 c8 bd c7 7e 84 3d 3d 74 d2 bc
       -0.020312395 -0.09805581 0.06469493 -0.025690192
000040 da ce 61 bd bd c0 10 bd ee 45 02 3d 17 2c 07 bc
       -0.05512891 -0.03534006 0.03180497 -0.008250258
000050 0b cc f9 bd fb 31 06 bc 61 3f 42 3d 95 e9 b0 3d
       -0.12197121 -0.008190627 0.047423724 0.08638302
000060 0e a9 46 bd 8b e9 20 be e2 40 7d bd 7e 1d 27 bf
       -0.048501067 -0.1571409 -0.061829455 -0.65279377
000070 89 8c 25 bf 89 77 97 be f6 e5 10 bf c3 c6 44 bf
       -0.64667565 -0.29583386 -0.5660089 -0.76865786
000080 e5 70 d5 be 9a 6c eb be b0 aa 27 bf 4d 7a b7 be
       -0.41687694 -0.45981294 -0.65494823 -0.35835496
000090 8c 51 60 be 96 54 47 be da 28 3e be cf e8 ec be
       -0.21906108 -0.1946586 -0.18570271 -0.4627137
0000a0 db da 20 bf 90 25 b4 be 27 f1 a7 bd ee c2 12 3e
       -0.62833947 -0.35184908 -0.08200293 0.14332172
0000b0 f3 e4 15 3e 07 ae 03 3e 03 02 41 bd 3c eb de bc
       0.14638118 0.12859355 -0.04712106 -0.027211778
0000c0 70 2f a8 3b cc f1 24 3d a6 4f ac 3d 45 74 0f 3e
       0.005132608 0.040269658 0.08413629 0.14009197
0000d0 fd dd f0 3d 92 6c bf 3d 76 96 cc bd 49 5d 24 3d
       0.11761091 0.0934688 -0.09989636 0.040128026
0000e0 fb 19 21 3e 43 e2 2f 3d 8b 95 0f bc cb 8a 27 be
       0.15732567 0.04294039 -0.008763681 -0.16361539
0000f0 5f fd a4 3d d2 4f 75 bc 3b f6 0e bd 3b 34 26 3c
       0.08056139 -0.014972644 -0.034902792 0.010144289
000100 79 ff bc 3d 05 d9 55 3d cc 69 ea bc 55 6e 58 3d
       0.09228415 0.05220892 -0.028614901 0.052839596
000110 20 15 25 3c 07 40 8a 3d 9c f5 52 bd 05 07 07 be
       0.010075837 0.067504935 -0.051503763 -0.13186271
000120 1e 85 51 bd b6 18 a2 bd 35 e1 2f bd be b3 ff bc
       -0.05115234 -0.079148695 -0.042939384 -0.031213637
000130 a9 3d 90 bc 4a 13 ff 3b b0 74 78 bb de 25 f0 3d
       -0.017607527 0.007784282 -0.0037911348 0.117259726
000140 89 38 e7 bd f9 37 5f 3d c2 a5 41 3d fd 7f 7c bc
       -0.1129008 0.05449674 0.04727722 -0.015411374
000150 d4 42 dd ba 6c 89 17 3e 93 40 34 3e 38 59 39 bd
       -0.0016880878 0.14798516 0.17602758 -0.0452511
000160 80 7b af 3d 83 33 07 3e aa 07 e3 3b 42 f8 e5 3d
       0.08568478 0.13203244 0.006928404 0.11228992
000170 ec 00 e8 3c 9a 6c 1d bd a3 82 d6 3d 87 f6 d5 3d
       0.028320752 -0.03843365 0.10474136 0.10447412
000180 33 57 3d be 60 35 b2 bd 70 d1 4d bd c5 9b 03 bd
       -0.18490295 -0.08701587 -0.050248563 -0.032130975
000190 3f 1a ed bd ce 64 80 bb 70 dd 82 3d 5e 43 6e 3d
       -0.11577272 -0.003918267 0.06389892 0.058169715
0001a0 c3 f2 8c 3c 84 a9 bc 3d 70 ec b6 bc 3b a6 d4 3c
       0.017205602 0.0921202 -0.022329539 0.025958171
0001b0 61 e0 00 3e 1e 19 b3 3d ee 22 e0 3c 39 5f 1a 3e
       0.12585594 0.08745025 0.027360406 0.15075387
0001c0 64 da 28 3d d8 08 89 be 5c 2d 23 3e 77 9a 2e 3c
       0.0412239 -0.2676456 0.15935272 0.0106569445
0001d0 cf 3b 52 be 32 49 1f be 8b 72 ed bd a5 a2 f4 bb
       -0.20530628 -0.15555266 -0.11594113 -0.007465678
0001e0 51 5c 87 bd 7b 5a 03 3c 6c 1a 09 3e c7 4e ee bd
       -0.06609405 0.008017178 0.13388985 -0.11636119
0001f0 06 b1 04 3e 5b 45 ef 3b e4 68 71 bd e1 8e af bd
       0.12958154 0.007301969 -0.058937922 -0.08572174
000200 15 30 1f 3d 55 a2 fe bd 69 5a ce bc f5 b3 a8 39
       0.038864214 -0.12433306 -0.025189595 0.00032177535
000210 9e b7 d7 bc 16 aa 06 be 8a 09 13 be 50 e0 8a bb
       -0.026332673 -0.1315082 -0.14359108 -0.004238166
000220 86 25 a3 3d cc 90 9b 3d 78 df a0 3c 22 8a e0 bc
       0.079661414 0.07595977 0.019637808 -0.027409617
000230 2b 64 39 bd 13 f8 8b 3c 3a 25 8d bd 6e a8 79 3d
       -0.045261543 0.017086064 -0.06891866 0.060951643
000240 6e 44 a8 3d b3 43 39 bc 60 12 bc 3d 38 a1 01 3c
       0.08216177 -0.011307645 0.09183192 0.007911973
000250 28 4b d1 bd 9c 7e 17 3d f8 c2 38 bd 93 28 a7 bd
       -0.10219413 0.03698598 -0.04510781 -0.08162036
000260 6a c3 6a bd a0 57 12 be c3 80 ad 3c 3a 74 83 bc
       -0.057315268 -0.14291239 0.021179562 -0.016046632
000270 bd f8 52 3d 3d 9a d3 3a a8 90 2a 3c ec 0d 16 3d
       0.051506747 0.0016143989 0.010410465 0.03663437
000280 13 4a e7 3d ac aa a9 3c 1d 0f 62 bc 8d 4d 77 3d
       0.112934254 0.020711266 -0.013797549 0.060376693
000290 2f c5 38 be 8f c2 96 3d e4 08 98 bd f0 12 83 bd
       -0.1804397 0.07361328 -0.07423571 -0.064000964
0002a0 ed 54 94 bb 93 09 8f 3d cf b9 a3 3d de ea fa 3c
       -0.0045267255 0.06984248 0.079944246 0.030629572
0002b0 4d 2d 2d bd a4 28 79 3c 07 96 d0 bd 80 25 af 3d
       -0.04227953 0.015207443 -0.101848654 0.085520744
0002c0 60 04 04 3e aa bb 0e be ee 35 1c 3c 38 1d b2 3d
       0.12892294 -0.13938776 0.009534342 0.08696979
0002d0 31 3b 05 be c3 7d 4d bd e4 28 4f be 20 76 27 bd
       -0.13010861 -0.050168764 -0.20230442 -0.040884137
0002e0 bc ef 4f 3d fd 0b 02 3c b1 7d c4 bc 96 c8 ed 3d
       0.050765738 0.007937429 -0.023985716 0.11610524
0002f0 9c 68 df 3d eb e5 93 3e 31 f9 82 3e b9 4e 41 3e
       0.109086245 0.2888635 0.25580743 0.18877687
000300 57 f3 8f 3d b4 0c a1 3e 57 28 56 3e 7a 6b 82 be
       0.07028835 0.31455004 0.20913826 -0.25472623
000310 08 3e 88 be 75 23 a9 bd 87 4f f0 3d 13 dd 97 bd
       -0.26609826 -0.08258716 0.11733919 -0.074152134
000320 ba a5 3b be c7 50 2f 3e 25 54 1c 3d 85 b9 f2 bc
       -0.18324938 0.17120658 0.038166184 -0.029629478
000330 0c 8d 78 bb 8a df 65 3d ca 68 7a bd 2f 68 97 3c
       -0.0037925867 0.056121387 -0.06113509 0.018482296
000340 66 48 1f 3c e5 60 02 3e e6 0a 46 3c b0 71 ae bc
       0.009721851 0.12732275 0.012087559 -0.021294445
000350 f2 9b 9b bd 55 95 f6 3c 2c f7 82 bd 18 6e b8 bd
       -0.075981036 0.030100504 -0.063948005 -0.09005374
000360 4d 67 82 3d ef 21 9b 3d d9 8a 45 bd 4a 15 79 3d
       0.06367359 0.07574832 -0.04822812 0.06081132
000370 c7 42 74 3d 24 fe 81 bd 8e da 5b bb 4e 64 e4 3d
       0.059633996 -0.063473016 -0.0033547017 0.11151944
000380 18 f7 3e 3d c2 b5 9a bd 26 38 92 bd 0e e3 f3 bd
       0.046622366 -0.07554199 -0.07139616 -0.119085416
000390 7d 70 8d bd b9 b8 08 bd 14 a6 16 3d 07 d6 fd bc
       -0.06906221 -0.03337929 0.03677948 -0.030985845
0003a0 6e 15 4b bc 34 11 92 3d 92 95 0b bd 97 34 b2 bc
       -0.012395246 0.071321875 -0.03407819 -0.021753592
0003b0 1f 11 5c bd ac 69 b6 bd 5a e1 84 3b d1 02 56 3d
       -0.053727265 -0.08906874 0.0040551843 0.05224878
0003c0 11 4c 61 3d 34 ce 65 bd 2a 6c 23 bb 17 57 73 bc
       0.055004183 -0.056104854 -0.0024936297 -0.014852307
0003d0 c9 d6 f5 3c 63 e7 4b 3c 27 3a cb bb dc cf 95 3d
       0.030009644 0.012445304 -0.0062020007 0.07315037
0003e0 ec 01 0e 3e c7 ff ae bd 25 34 6a 3c 22 1f 77 3d
       0.1386792 -0.085448794 0.014294659 0.060332425
0003f0 47 d5 4a bd 60 99 ba 3b 24 98 c6 bc 87 35 83 3c
       -0.049519803 0.0056945533 -0.024242468 0.016016735

bias f4 [32]
000000 a5 1a 0b 3e 1c 26 1f be ca df 3d be eb df 2a be
       0.13584383 -0.15541881 -0.185424 -0.1668698
000010 2a f2 8a bd f9 dc 65 be 2b 1f 0c 3e aa 21 0f bd
       -0.067844704 -0.22447576 0.13683765 -0.034944214
000020 a1 70 47 3e c3 cd 73 be 59 dd e4 bd b2 c0 95 be
       0.19476558 -0.2380896 -0.11175031 -0.29248577
000030 c6 ff a2 3d e4 46 eb bd bb 40 89 bd a5 a4 8d bc
       0.07958941 -0.11488131 -0.067017995 -0.017290423
000040 56 54 34 be 54 10 ed 3d cf 7a 31 be 2c 23 71 3d
       -0.17610297 0.1157538 -0.17332004 0.058871433
000050 86 8b 99 bd e1 75 9b 3e 35 46 e2 3d 2b f1 2b 3e
       -0.07497315 0.30363372 0.11048547 0.16791217
000060 8d 50 ee 3d d1 00 89 3c 29 7f 22 bf 64 5e 56 3e
       0.116364576 0.016724022 -0.6347528 0.20934445
000070 ba 69 d9 bd 74 82 b4 bd 48 1d 8d bd cf d6 39 3e
       -0.10615869 -0.088139445 -0.068903506 0.18148349

weight f4 [32, 32, 3, 3]
000000 c5 52 77 3b 26 d1 89 3d bf df 6b 39 13 16 2f 3c
       0.0037738543 0.06729345 0.00022494698 0.010686415
000010 d1 22 e5 bc ef 01 52 3c e7 02 86 bd c3 4a 07 3d
       -0.027970703 0.012817844 -0.06543522 0.033030283
000020 d5 82 7f bc 56 0e 70 3d 5c 3a 7a bc d9 16 79 3c
       -0.015595158 0.05860742 -0.015272703 0.015203201
000030 09 f5 75 3b 65 41 68 3d e4 4a 77 bd dd 0c 13 ba
       0.0037530086 0.05670299 -0.060374156 -0.0005609522
000040 7d 18 69 3d c3 3f fc bc 46 a0 7d bc dc 24 3e 3b
       0.05690812 -0.030792123 -0.015480107 0.002901367
000050 84 63 69 3c f4 e2 2a 3d 08 0c bf 3c fa 86 af 3c
       0.014244918 0.041720346 0.023321167 0.021426667
000060 90 c9 98 bc 5d f5 6d bc 7c aa 1e bd 7c 3e b0 3c
       -0.0186508 -0.014523831 -0.038736805 0.02151417
000070 bb 1c 67 3d 28 bc f5 bc f1 a4 8a 3d ff 6b 0e 3b
       0.056423884 -0.029996946 0.06769741 0.002173185
000080 69 6d 15 3d c8 c9 73 3d 8f c5 31 bd f8 84 55 bd
       0.036481295 0.059518605 -0.043401297 -0.052128762
000090 01 65 8f bc 24 a0 17 bd cd 9a 27 bd 0d 77 d6 bc
       -0.017504217 -0.037017956 -0.040919114 -0.026179815
0000a0 e4 38 84 3d 02 0b 74 3c 0d f5 3c 3d 22 82 5e bd
       0.064561635 0.014895203 0.046132136 -0.054323323
0000b0 73 bd 0f bd 8e be 21 3d 89 98 4e ba b8 b4 17 3d
       -0.035092782 0.039488368 -0.0007881006 0.03703758
0000c0 e9 c6 21 3d 3e e0 71 bd c6 ef 07 bd 05 50 ca 3c
       0.039496336 -0.059051745 -0.03318765 0.02469636
0000d0 36 0a 27 bd 3f 70 ae bc a4 b2 40 bd a7 cd 52 3d
       -0.040781222 -0.021293757 -0.047045365 0.051465657
0000e0 46 59 61 3a 64 2f 02 bc 61 91 1d bd bc 90 a9 3b
       0.00085963716 -0.007945869 -0.038468722 0.0051747244
0000f0 85 ee 2a bc f7 92 38 3d e0 62 0e bd e4 ad 0c 3d
       -0.010432844 0.04506203 -0.034762263 0.034345523
000100 cc c3 03 bc fd fe 59 bd 0c 1b 77 3b 90 05 9e 3b
       -0.008042287 -0.05322169 0.003770533 0.0048224404
000110 bf 56 71 bd 67 43 4c 3d 17 4e 0b 3d 85 eb 94 bc
       -0.05892062 0.049868967 0.03401002 -0.01817871
000120 93 c4 cd 3c c5 3a 67 3d fc 32 34 bc 8d 9b 31 bd
       0.025118148 0.05645253 -0.010998484 -0.043361235
000130 02 f6 47 3b a5 df a5 3c d2 95 05 bd 1e e6 ee ba
       0.0030511622 0.020248244 -0.032613583 -0.0018226539
000140 87 43 e6 3b 1e a0 3a 3d f6 97 18 ba 16 e4 13 bd
       0.007027093 0.045562856 -0.0005820984 -0.03610619
000150 f3 b1 66 bd 3a 4f c9 bc c0 d9 85 3d f5 50 82 3c
       -0.05632205 -0.024573911 0.06535673 0.015907744
000160 ca 94 91 3b a9 75 5f 3c 6f ae 9e 3b e3 5a d5 3c
       0.004442786 0.013638892 0.0048425714 0.026044315
000170 01 7d c4 3a 08 7e 33 3d 85 47 8d ba 45 4f fb bc
       0.0014990867 0.043821365 -0.0010778761 -0.030677447
000180 f2 51 11 bd 95 9a ff 3c a2 51 51 bd 72 1c 82 bc
       -0.03547854 0.03120164 -0.05110324 -0.015882704
000190 55 ba 12 bd 08 14 51 bc b3 5d 81 3d 63 0f 25 3c
       -0.03582223 -0.0127611235 0.063167 0.010074469
0001a0 a6 b0 80 bd 2b 33 cb 3b a0 48 09 bb 15 93 b7 bc
       -0.06283693 0.006201168 -0.002094783 -0.022409001
0001b0 a0 22 98 bd a7 dd 26 bd 41 20 3f bd 07 fa 6c bd
       -0.07428479 -0.040738728 -0.04666162 -0.057855632
0001c0 e3 dd fa bb 78 94 15 3d ee 47 bc bc df 78 41 3d
       -0.0076558455 0.036518544 -0.022983517 0.047234412
0001d0 53 36 ee 3c 44 7e 09 3d 8e 95 02 3d d8 39 4c 3d
       0.029078638 0.033567682 0.031880908 0.04985985
0001e0 b1 c2 ee 3b 47 36 8f 3c dd e7 05 bd 1e 90 a3 bc
       0.0072863926 0.017481936 -0.032691825 -0.019966181
0001f0 36 8e b0 bb 75 c2 0a 3d fc 53 77 bc d6 3b 05 bc
       -0.0053880466 0.033876855 -0.015095707 -0.008131942
000200 bf 05 c3 3c 7c b8 07 3d 07 89 4d bd 0d 72 76 bd
       0.02380645 0.033134922 -0.050179508 -0.06016736
000210 28 df 13 bd 99 e0 6c 3d 6a 13 3f bd 18 96 31 bd
       -0.03610149 0.05783138 -0.046649374 -0.04335603
000220 35 23 42 3d 5c a2 26 3d c4 f5 2e 3c b7 26 2f bd
       0.047396857 0.04068218 0.010678712 -0.04276153
000230 d3 bb 6f 3d 26 27 90 bb b3 4d 4c bd 1d 06 81 bd
       0.058528733 -0.004399198 -0.049878787 -0.06299994
000240 89 4e 45 3d fa 61 4c 3d 31 b9 d7 3c 46 49 5f 3d
       0.0481706 0.049898125 0.026333423 0.05451324
000250 30 4c 6f bc e0 21 6e bd d0 8d b4 3a 9f 5a e6 bc
       -0.014605567 -0.058137774 0.0013775174 -0.028119383
000260 52 e1 bb bc 31 27 91 3c 37 89 96 3c 1e 35 12 3d
       -0.02293459 0.017718883 0.018375976 0.035695188
000270 73 28 42 bd 3b 9a a9 3b 5a 94 11 bc 65 e4 c3 3c
       -0.047401857 0.0051758564 -0.008885467 0.023912618
000280 59 f7 51 bd 20 57 65 3c 09 e5 cf bc 4b 2a 15 3d
       -0.05126128 0.013997823 -0.025377767 0.036417287
000290 85 52 20 bd 93 45 e5 3c 2d 71 bc 3c 5c 4e d6 3b
       -0.039141197 0.027987277 0.023003185 0.006540103
0002a0 90 06 a7 3c a9 ba d5 3c a8 8e 0e bd 55 3a f7 3c
       0.020388871 0.026089983 -0.034804016 0.030179182
0002b0 65 d2 34 bd 32 f5 80 3d 5b 9d f3 bc 32 74 d2 bc
       -0.04414596 0.06296767 -0.029738119 -0.025690172
0002c0 d5 26 08 3d ad f5 36 3d 93 cc 2e bd d2 ea f5 bb
       0.033240158 0.04466789 -0.042675566 -0.0075047994
0002d0 b8 02 4e bd 59 c0 0f bd 4a 80 12 bd 70 fd 25 bd
       -0.05029556 -0.035095546 -0.035766877 -0.0405249
0002e0 5c 35 2e 3d 05 5f 26 bd 68 17 76 bd d3 46 80 3b
       0.042531356 -0.04061796 -0.060080916 0.003914693
0002f0 a4 2d 58 3c ac fc 79 bc 39 f4 a6 bc 37 27 70 3c
       0.013194475 -0.015257996 -0.020380126 0.014657787
000300 8d 47 3f bc ed 33 ef bb f5 61 b0 bc 80 64 28 bd
       -0.011674774 -0.007299891 -0.021531085 -0.04111147
000310 74 0c db bb 4f 76 9f bc b0 aa 75 3c dd 61 83 bd
       -0.006684834 -0.019465594 0.014994308 -0.0641515
000320 81 68 28 bd 41 d8 76 3d be 45 39 bd bb 8d a3 ba
       -0.041115288 0.06026483 -0.045232527 -0.0012478152
000330 cf e5 ec bc bf 44 95 3d 06 4f 88 3a 5e eb 87 bd
       -0.028918175 0.07288503 0.0010399527 -0.066366896
000340 48 27 b6 3c 27 76 c3 3c 50 b6 91 bc b8 fc 88 bc
       0.022235528 0.02386005 -0.017787129 -0.016722068
000350 de a3 5d ba 24 de 0e bd 7b 92 df 3c 0a ca 03 3d
       -0.0008454899 -0.03487982 0.027291527 0.0321751
000360 25 4d b2 3c 7c 83 25 3d 0e 9e 8d bc 31 65 18 bd
       0.021765301 0.040408596 -0.01728728 -0.03720588
000370 a9 e9 d0 3b 11 1a aa bc 22 ce 45 3c 0c 55 7b bd
       0.0063755107 -0.020764383 0.012073072 -0.061360404
000380 9b 14 7d bd c6 cf dc 3c a1 db 12 3c 12 b7 83 3d
       -0.06178723 0.026954543 0.008963496 0.06431402
000390 c2 8b 62 bd c1 6d c6 39 95 f9 ac 3c 03 61 fd 3c
       -0.055309065 0.00037847276 0.021115104 0.030930048
0003a0 09 ac 08 bd e2 ea 17 bd 38 fb 89 bc a9 32 a4 3c
       -0.03336719 -0.037089236 -0.016843423 0.020043688
0003b0 3d bc 40 3d f5 c8 76 3d 5e 93 70 3c 16 12 06 bd
       0.047054518 0.06025024 0.014683573 -0.03273209
0003c0 04 da 98 3b bd a1 0d bd f0 9a 32 3d 5b ed 93 bc
       0.0046646614 -0.034578074 0.04360479 -0.018057516
0003d0 0c 88 df 3c 47 ba 85 bc c4 dc 67 bd 7c 7d 56 bb
       0.027286552 -0.016324176 -0.056607023 -0.0032728603
0003e0 58 bd dd 3c d5 7b 63 bc e5 47 51 3b 7e 1c fc 3a
       0.027067825 -0.013884504 0.0031933722 0.0019234566
0003f0 3c 71 d1 3b 56 76 3f bd 59 0a 46 3c 34 0f 55 bd
       0.0063916724 -0.046743713 0.012087428 -0.052016452

bias f4 [32]
000000 38 34 a2 39 bb 50 94 3e 20 f2 06 3e 53 b7 0e 3b
       0.00030937954 0.28967842 0.13178301 0.002177675
000010 f6 3b 29 3b f7 42 bb bd 9b 8e 88 3c 47 cc f9 bc
       0.0025823093 -0.09143632 0.016669562 -0.030492915
000020 81 75 7e 3e a0 7d 06 bd 07 4b 08 be e6 c3 b5 bd
       0.24849512 -0.03283465 -0.1330987 -0.08875255
000030 30 b7 71 3d 75 cd d0 be ac 04 09 be 13 79 ae 3d
       0.05901259 -0.4078175 -0.13380688 0.08519187
000040 ed 60 2d bd b2 76 84 be 36 dd 03 bd 06 92 60 3f
       -0.042328764 -0.25871807 -0.032193385 0.87722814
000050 9a 1f a3 3d 08 74 4e 3f 27 9a f9 3c 19 94 2c bd
       0.07965012 0.806458 0.030469013 -0.042133424
000060 de 6d f1 bc b0 79 2f 3b 47 c2 09 bc 3c a6 87 3c
       -0.029471334 0.0026775412 -0.008408136 0.016558759
000070 76 e9 b4 bd 31 80 93 bb 8d fe ee bc 82 ab 3d bf
       -0.08833592 -0.0045013656 -0.029174114 -0.74089825

weight f4 [1, 32, 2, 2]
000000 df f3 ab bb 8c 82 cd bd 3e b8 0c 39 26 d3 69 bb
       -0.0052475776 -0.100346655 0.00013420076 -0.0035678833
000010 62 05 91 3e 50 21 82 3e ea 29 99 3e 69 21 82 3e
       0.2832442 0.2541604 0.2991479 0.25416115
000020 42 bf 76 bd 8e 22 4a be 8d cf 84 bd 5c c4 7c be
       -0.06024099 -0.19739744 -0.064849 -0.2468428
000030 83 24 a4 bd fd 57 aa b9 b0 b9 d8 bc f7 c1 23 3e
       -0.080147766 -0.00032490483 -0.02645573 0.1599196
000040 48 c4 21 be 56 db 54 3e d5 4f 53 be f9 34 05 3e
       -0.15797532 0.20786795 -0.20635922 0.13008489
000050 07 a2 8c be 6c 81 87 be 55 bc 7e be 0e eb 52 be
       -0.27467367 -0.2646593 -0.2487653 -0.20597479
000060 88 e8 f1 bd 52 c7 07 3e f3 df 24 be 97 70 bf 3d
       -0.1181193 0.13259628 -0.16101055 0.09347647
000070 92 34 06 be 97 3b 94 3e 7d 4d 62 be 62 94 3c 3e
       -0.13105991 0.28951713 -0.22099872 0.18415979
000080 a5 e4 ac 3e 6c a6 bb 3e 33 90 af 3e b2 67 c5 3e
       0.33768192 0.36650407 0.34289703 0.38555676
000090 9f 39 9a 3e 8e 6a 86 be 8d bc 74 3e 78 ea 9a be
       0.30122086 -0.2625317 0.23900051 -0.3025701
0000a0 63 46 38 3e 98 e0 31 3e 95 a8 4f 3e 13 c0 3c 3e
       0.179956 0.17370832 0.20279153 0.18432645
0000b0 f3 5c 2e 3e 59 1b 6b 3e bb d0 01 3e 77 a3 10 3e
       0.17027645 0.22959651 0.1267728 0.14124857
0000c0 7a 74 51 bd 6b ce 08 3e 25 81 02 be ac 89 ef 3d
       -0.05113647 0.13359992 -0.12744577 0.11696181
0000d0 42 ef a6 3e 21 8d 8c 3e 31 57 88 3e d6 ef 6d 3e
       0.32604414 0.27451423 0.26629022 0.23236021
0000e0 86 2c 62 3e be 89 a5 3d 4a cb 11 be 28 be c1 be
       0.22087297 0.08082913 -0.14237705 -0.3784039
0000f0 c8 94 9d be 9a 29 90 bd 90 5e 34 3e ae 28 d4 3e
       -0.30777574 -0.07039185 0.17614198 0.41437286
000100 a6 b4 71 3d 7b 9a fa bd c7 e2 82 3d db 45 95 bc
       0.05901017 -0.12236496 0.063909106 -0.018221786
000110 df 38 97 be 32 e2 7c be 40 e8 7b be bf c9 5d be
       -0.29535577 -0.24695662 -0.24600315 -0.21658991
000120 46 0f 19 3e 5a 04 ca 3d 89 d6 43 3e e4 f9 e0 3d
       0.14947233 0.09864111 0.19124807 0.10985163
000130 10 e0 c2 be 79 9f ca be 10 39 c7 be c4 09 cd be
       -0.3806157 -0.39574793 -0.38910723 -0.40046513
000140 4e 23 5a bd 30 03 c2 3c 7f a2 d6 bd 0b 93 7b 3d
       -0.053256325 0.02368316 -0.104802124 0.061419528
000150 27 33 cb 3e 48 b7 cd 3e 09 6f d0 3e d2 39 db 3e
       0.39687464 0.40178895 0.40709713 0.4281755
000160 d9 2d 51 bd db be b5 bd 5d a9 68 3e f8 5f f1 bc
       -0.051069114 -0.088742934 0.22720857 -0.029464707
000170 65 d0 a8 3d 68 ed e3 ba 90 37 19 bd 75 99 f6 bd
       0.08242873 -0.0017389478 -0.037406504 -0.12040988
000180 bd d0 db bc 14 d1 7f bd 8a 1a 27 be d0 1d 41 be
       -0.026832933 -0.06245525 -0.16318718 -0.18859029
000190 d9 c0 48 3e a1 91 c0 3d 9c d0 3e bd a5 a5 2b be
       0.19604816 0.094027765 -0.046585664 -0.16762407
0001a0 94 16 07 be 06 04 18 3e 82 93 98 be 9d 9d c8 3d
       -0.13192207 0.14845285 -0.2980004 0.09795687
0001b0 47 fd 65 3d d7 0a a7 bd 6f a3 00 bd 08 bc 0d 3d
       0.056149747 -0.081563644 -0.031405862 0.03460315
0001c0 62 a1 1a 3e 72 f0 3e 3e 56 e5 7e 3e 09 ca 86 3e
       0.15100625 0.1864641 0.24892172 0.26326016
0001d0 81 dc 0e 3e 3f 73 8c 3d da 9a 01 be b8 f9 60 be
       0.13951303 0.06857919 -0.12656727 -0.2197026
0001e0 3a 9e 9f 3d 7b b1 0e 3c d3 37 16 3e 52 d9 50 3e
       0.07793851 0.008709307 0.14669733 0.20395401
0001f0 0e 46 ba 3e 80 42 bf 3e 25 92 ce 3e 09 4b c9 3e
       0.36381572 0.37355423 0.40345874 0.3931506
